ecgClassificationSnnModel/saved_models/best_model.pth (torch, 54203 bytes, 3 tensors)

fc1.weight f4 [64, 200]
0	0xbc81ae22	-0.015830103
1	0xbd76d532	-0.060261913
2	0x3d678632	0.056524463
3	0x3c2b5c60	0.010459036
4	0xbcc179c6	-0.023617636
5	0x3c7c3460	0.015393347
6	0xbd6a152c	-0.057149097
7	0x3d15a76e	0.036536627
8	0xbd4689ae	-0.048471145
9	0x3d029e52	0.031889267
10	0x3d8c6f17	0.06857126
11	0xbcecbede	-0.028899606
12	0x3c3807b8	0.011232309
13	0xbc02d188	-0.007984526
14	0xbd67c79f	-0.056586858
15	0xbcb732a6	-0.022363018
16	0xbd2c7075	-0.042099435
17	0x3d80507f	0.062653534
18	0x3cb9d7b4	0.022685863
19	0x3ccefad8	0.025266096
20	0x3be0dc40	0.0068621933
21	0x3d047ec6	0.032347463
22	0xbc247ec0	-0.010039985
23	0xbc045820	-0.008077651
24	0x3d466016	0.04843148
25	0xbd5da826	-0.054115437
26	0x3adab6c0	0.0016686544
27	0x3cdd30d0	0.027000815
28	0x3b6c3b40	0.0036046058
29	0xbcb64102	-0.022247795
30	0x3d5f50e6	0.05452051
31	0xbd8651d5	-0.06558577
32	0xbca1db7c	-0.019757979
33	0x3ba5be80	0.0050581098
34	0x3d825e3d	0.06365631
35	0xbd2b214e	-0.04177981
36	0x3c91b3a8	0.017785862
37	0x3d24ce9c	0.0402361
38	0x3b8dcfe0	0.004327759
39	0x3d4f3268	0.05058518
40	0x3c44a260	0.012001604
41	0xbd7994d6	-0.060932957
42	0x3aca6840	0.0015442446
43	0x3af82280	0.001893118
44	0xbcea3802	-0.02859116
45	0xbc74985c	-0.014928903
46	0xbd2791c0	-0.040910482
47	0xbd8ac6b0	-0.06776178
48	0xbd403c54	-0.046932533
49	0xbc88cd2e	-0.0166994
50	0xbd0c96dd	-0.034323562
51	0xbd55d938	-0.05220911
52	0xbcd8b25e	-0.02645224
53	0xbd585081	-0.05281115
54	0xbc119110	-0.008884683
55	0x3c6b3090	0.01435484
56	0xbca7b5ac	-0.02047237
57	0x3d021fec	0.031768724
58	0x3cc40f34	0.02393303
59	0xbd3dfc6f	-0.046383318
60	0x3d3a5bde	0.045497768
61	0x3d83889b	0.0642254
62	0x3d8323f9	0.064033456
63	0xbd2b3e36	-0.041807376
64	0x3d16c67e	0.03681039
65	0x3c77cd98	0.015124701
66	0x3d83a2bb	0.06427523
67	0x3c346048	0.011009283
68	0xbb1a53e0	-0.0023548529
69	0xbd30afe0	-0.043136477
70	0x3d8fed33	0.07027664
71	0xbd5e86a6	-0.05432763
72	0xbd740d94	-0.05958326
73	0x3d89fccf	0.067376725
74	0x3ceecfe4	0.029151864
75	0xbcc80ed8	-0.02442114
76	0xbcaaa284	-0.020829447
77	0x3d26fbc8	0.04076746
78	0xbc922588	-0.017840162
79	0x3c743448	0.014905043
80	0xbd3ab099	-0.045578573
81	0xbcc168bc	-0.023609512
82	0x3d733902	0.05938054
83	0xbd28781b	-0.041130167
84	0xbd230022	-0.03979505
85	0xbcec2c24	-0.028829642
86	0x3c497a30	0.012297198
87	0xbd55f68e	-0.052237086
88	0x3c5b59b0	0.013388082
89	0xbd85482c	-0.06507906
90	0x3ca70cd0	0.020391852
91	0xbc525904	-0.012838606
92	0x3c8f5700	0.01749754
93	0x3c2928d0	0.010324672
94	0x3caa4148	0.020783082
95	0xbca7dad0	-0.02049008
96	0xbd1e8d29	-0.03870884
97	0xbd8f312f	-0.06991803
98	0x3a858b00	0.001018852
99	0xbd814e78	-0.06313795
100	0xbcd054f8	-0.025431141
101	0x3cbd0ef0	0.023078412
102	0x3d69eae6	0.057108782
103	0xbb562920	-0.003267832
104	0xbd237167	-0.03990307
105	0xbbd81220	-0.0065939575
106	0xbc792d2c	-0.015208524
107	0xbd2a9a60	-0.04165113
108	0x3c29b730	0.010358617
109	0x3cca6f60	0.02471131
110	0xbc65b930	-0.014021203
111	0xba63b180	-0.00086858124
112	0x3ca97d78	0.020689711
113	0x3cf81848	0.030285016
114	0xbd012b88	-0.031535655
115	0xbc823d72	-0.01589844
116	0x3d156340	0.036471605
117	0x3baff010	0.005369194
118	0xbc513d24	-0.012770925
119	0x3cf57d78	0.029967055
120	0x3d5f2446	0.054477952
121	0xbd0aa02c	-0.033844158
122	0x3d570ee6	0.052504443
123	0x3c482e78	0.01221811
124	0xbcf1e5ba	-0.029528487
125	0xbba4b4a0	-0.005026415
126	0xbd6b4420	-0.057438016
127	0x3d8fc539	0.07020039
128	0xbd13bcfd	-0.036068905
129	0x3cd140d4	0.025543608
130	0x3ba13390	0.004919477
131	0xbd596ed0	-0.053084195
132	0x3d4f7184	0.050645366
133	0x3d682b76	0.056682073
134	0x3d2473ce	0.040149502
135	0xbcdd9a70	-0.02705118
136	0xbd3f697e	-0.046731465
137	0x3cd0b93c	0.025478952
138	0xbbdb89b0	-0.0066997632
139	0x3cfe7c0c	0.03106501
140	0x3b0b79c0	0.0021282285
141	0xbb03a5e0	-0.0020087883
142	0x3d516b7e	0.051127903
143	0xbd3f0a5f	-0.04664075
144	0xbc14d094	-0.009082932
145	0x3c104040	0.008804381
146	0x3ca2caac	0.019872032
147	0xbc4cf904	-0.012510542
148	0xbd50643b	-0.050876837
149	0x3d0db70c	0.034598395
150	0xbd2a76aa	-0.041617073
151	0xbb058aa0	-0.0020376816
152	0x3d674c42	0.05646921
153	0x3c2460a8	0.01003281
154	0x3c73bba8	0.014876284
155	0xbd67146f	-0.05641597
156	0x3d8a10dd	0.06741498
157	0x3c742d38	0.014903359
158	0x3d12d972	0.035851903
159	0x3d8dc38b	0.069220625
160	0x3d31a2f0	0.04336828
161	0x3b2e5140	0.0026598722
162	0x3d64c336	0.05585023
163	0x3cb36a6c	0.021901332
164	0xbd7d255c	-0.061803207
165	0x3d1415d4	0.03615363
166	0xbbc29260	-0.0059378594
167	0x3b937490	0.0044999793
168	0x3d3d583a	0.046226718
169	0x3ba4bcb0	0.005027376
170	0xbd1287be	-0.035773985
171	0x3d803715	0.06260506
172	0x3d322aa4	0.043497697
173	0xbd58947e	-0.05287599
174	0x3cac49a4	0.021031208
175	0xbcd8df5c	-0.026473694
176	0x3c44f4e0	0.012021273
177	0x3d5d3cac	0.05401294
178	0x3c4e6cc8	0.012599178
179	0x3d459b58	0.04824385
180	0x3cb3f1f8	0.021965966
181	0xbd9031cf	-0.0704075
182	0xbc2c443c	-0.010514315
183	0xbce9061c	-0.028445296
184	0x3baa9300	0.005205512
185	0x3c825740	0.015910745
186	0xbc8b4cb4	-0.017004348
187	0x3d043a32	0.032282062
188	0x3d823e3b	0.06359526
189	0x3c104488	0.008805402
190	0xbd276f54	-0.040877655
191	0xbd2dcd78	-0.04243228
192	0x3cfe8ae4	0.031072088
193	0x3cdab090	0.02669552
194	0x3d6642ae	0.056215934
195	0xbd19bd38	-0.03753397
196	0x3d0972b4	0.033556655
197	0x3d53a096	0.05166682
198	0x3c05d740	0.008168995
199	0xbd0d6a50	-0.034525216
200	0x3d260892	0.040535517
201	0x3bacd020	0.005273834
202	0xbcbc43fe	-0.02298164
203	0x3d3dba50	0.04632026
204	0x3d894e79	0.067044206
205	0x3d3dfe5a	0.046385147
206	0x3d6bca9a	0.057566263
207	0xbb7e15a0	-0.0038770214
208	0xbc1dd8a4	-0.009634171
209	0x3c966cd4	0.01836244
210	0x3d8d2973	0.068926714
211	0xbb717e40	-0.0036848933
212	0xbd52a9d6	-0.0514315
213	0xbd4e8abc	-0.050425276
214	0xbd5003a4	-0.050784722
215	0xbd453fcc	-0.048156545
216	0xbc508bc4	-0.012728635
217	0xbc427d44	-0.011870686
218	0x3d87c193	0.06628718
219	0xbd8f6b87	-0.07002931
220	0xbca1ec12	-0.019765887
221	0x3d4a2f76	0.04936167
222	0xbd8a0018	-0.06738299
223	0xbd1ad08f	-0.037796553
224	0xbcb4499a	-0.022007752
225	0xbd1ee089	-0.038788352
226	0x3d12c274	0.035829976
227	0xbca82b56	-0.020528477
228	0x3d410b06	0.047129653
229	0xbcdd7214	-0.027031936
230	0x3ce77ca0	0.028257668
231	0x3d73ce52	0.059522934
232	0xbc86d0f2	-0.016457055
233	0xbd7e768d	-0.062124778
234	0xbc096528	-0.008385934
235	0x3cf0cca8	0.029394463
236	0xbd325a68	-0.04354325
237	0x3c503608	0.012708195
238	0xbd486298	-0.04892215
239	0xbbd3fe30	-0.0064695105
240	0xbd84dd02	-0.064874664
241	0xbccb5f32	-0.024825666
242	0x3bf234e0	0.007391557
243	0xbd18f000	-0.037338257
244	0x3c1ed6d0	0.00969477
245	0x3d8d407b	0.06897064
246	0x3cc74c88	0.024328485
247	0xbd5ca5dc	-0.053869113
248	0x3caaf82c	0.02087029
249	0x3d101f5a	0.03518615
250	0xbd69bcff	-0.057065006
251	0x3c827a74	0.01592753
252	0x3cd28148	0.025696412
253	0x3d6746d6	0.05646404
254	0xbd20545c	-0.03914295
255	0x3a982e40	0.0011610463

fc1.bias f4 [64]
0	0xbd5fadb0	-0.054609
1	0xbc8f5542	-0.017496709
2	0xbc144a70	-0.00905095
3	0x3d06ffa4	0.03295864
4	0x3c653c68	0.013991453
5	0x3c2a24c8	0.010384746
6	0xbca1d56c	-0.019755088
7	0xbc538948	-0.012911148
8	0x3cd28f50	0.025703102
9	0x3c820988	0.015873685
10	0x3c5d4278	0.013504617
11	0x3c5668e8	0.013086535
12	0x3d3752f8	0.04475686
13	0xbcf2819c	-0.029602818
14	0x3d681f3a	0.056670405
15	0x3d2016e2	0.039084323
16	0x3d834435	0.06409494
17	0xbbe70f50	-0.007051386
18	0x3cf18870	0.029484004
19	0x3d3ab3ee	0.04558175
20	0xbc7a1fac	-0.01526634
21	0xbd2a2bc6	-0.04154565
22	0xbcdba94a	-0.026814122
23	0x3b94ba30	0.004538797
24	0xbd730a34	-0.059335902
25	0x3c2b3af8	0.010451071
26	0xbd447fcc	-0.04797344
27	0xbc911c24	-0.017713614
28	0xbd4dd428	-0.050251156
29	0x3d028662	0.03186644
30	0x3d5ada46	0.053430818
31	0xbd657396	-0.056018434
32	0x3d7f7d46	0.06237533
33	0xbd161507	-0.036641147
34	0xba562080	-0.0008168295
35	0xbd4d1022	-0.050064214
36	0x3d9093b7	0.07059424
37	0xbd821c40	-0.063530445
38	0xbae244c0	-0.0017262921
39	0xbc93601c	-0.017990164
40	0x3d057652	0.032583542
41	0x3d331402	0.043720253
42	0x3d669952	0.05629856
43	0xbd899252	-0.067173615
44	0x3d7b3bf2	0.061336465
45	0x3ba01410	0.004885204
46	0xbc1c9e4c	-0.009559225
47	0xbd1d02f9	-0.038332913
48	0xbcc4f684	-0.024043329
49	0xbcc69818	-0.024242446
50	0xbd824a22	-0.06361796
51	0xbc632be4	-0.013865445
52	0x3d4421b6	0.04788371
53	0x3d7e6f6a	0.06211797
54	0xbd0c7b52	-0.034297295
55	0xbc189fc8	-0.009315439
56	0xbd2dc488	-0.042423755
57	0xbc9bf012	-0.019035373
58	0xbd76ee5e	-0.06028592
59	0xbd51a1a6	-0.05117955
60	0xbca4fe4c	-0.02014079
61	0x3d7211f6	0.05909916
62	0x3afd0680	0.0019304305
63	0x3ce8cc48	0.028417721

fc2.weight f4 [1, 64]
0	0x40465be8	3.0993595
1	0x404fdfd6	3.2480369
2	0x406030f4	3.5029879
3	0xc0500275	-3.25015
4	0x3f77dcac	0.96821094
5	0xc01ab808	-2.4174824
6	0x40c185b4	6.047571
7	0xbf20a863	-0.6275694
8	0x4054cee1	3.325127
9	0x4027270b	2.611758
10	0x400a904e	2.1650577
11	0x406e3750	3.722126
12	0x4046238b	3.0959194
13	0x4047e962	3.1236196
14	0x3f77a859	0.96741253
15	0x40461fc5	3.095689
16	0x3f03e4b7	0.51520866
17	0x3f0d7fbf	0.5527305
18	0x3eab0b15	0.33406892
19	0x4044f4e8	3.077448
20	0x3e1c0904	0.15237814
21	0x4040afce	3.0107303
22	0x4026b0a7	2.604532
23	0x40874374	4.226984
24	0x406591f6	3.5870337
25	0xbf2eb074	-0.68237996
26	0xbf3fcd3f	-0.74922556
27	0x4036de20	2.8573074
28	0x3fda0583	1.7032932
29	0x4045946d	3.0871842
30	0x40cbc50a	6.3678026
31	0x3f7f1745	0.9964488
32	0x3f7c54e9	0.9856706
33	0x3f21714b	0.63063496
34	0x3ec54d7c	0.38535678
35	0x40172dd0	2.3621712
36	0x3fc1091f	1.5080909
37	0x4053195e	3.2984233
38	0x3eebf087	0.46081945
39	0xbf9c5a3c	-1.2215037
40	0x3fd0ee5a	1.6322739
41	0xbef31105	-0.47473922
42	0x403aafcd	2.91698
43	0xbfe3a86e	-1.7785776
44	0x40471c2e	3.111095
45	0x40c8d546	6.2760344
46	0x402d2252	2.7052197
47	0x408c35b4	4.3815556
48	0xbca94776	-0.020663958
49	0x4007d6df	2.1224897
50	0x3e763da2	0.24046949
51	0xbf20a71c	-0.6275499
52	0x3f41bb5f	0.7567653
53	0x4072e2c2	3.7950902
54	0x402f7e97	2.7421014
55	0x4028c60e	2.6370883
56	0x3fe26a5e	1.7688711
57	0xbff5cf9a	-1.920398
58	0x3f16278e	0.58654106
59	0xc008b629	-2.1361182
60	0x400126e2	2.0179982
61	0xc00427db	-2.0649326
62	0x404aee68	3.1708012
63	0x3f9765d8	1.1827955
